=== TensorBoard可视化 01:58:03 ===
Model: "sequential_1"
_________________________________________________________________
Layer (type)                 Output Shape              Param #   
=================================================================
conv1 (Conv2D)               (None, 26, 26, 32)        320       
_________________________________________________________________
bn1 (BatchNormalization)     (None, 26, 26, 32)        128       
_________________________________________________________________
pool1 (MaxPooling2D)         (None, 13, 13, 32)        0         
_________________________________________________________________
conv2 (Conv2D)               (None, 11, 11, 64)        18496     
_________________________________________________________________
bn2 (BatchNormalization)     (None, 11, 11, 64)        256       
_________________________________________________________________
pool2 (MaxPooling2D)         (None, 5, 5, 64)          0         
_________________________________________________________________
conv3 (Conv2D)               (None, 3, 3, 64)          36928     
_________________________________________________________________
flat (Flatten)               (None, 576)               0         
_________________________________________________________________
dense1 (Dense)               (None, 128)               73856     
_________________________________________________________________
drop (Dropout)               (None, 128)               0         
_________________________________________________________________
output (Dense)               (None, 10)                1290      
=================================================================
Total params: 131,274
Trainable params: 131,082
Non-trainable params: 192
_________________________________________________________________

总参数: 131,274
